…
To enable the following instructions: AVX2 AVX512F AVX512_VNNI FMA, in other operations, rebuild TensorFlow with the appropriate compiler flags.
2025-03-25 11:25:13.718261: W tensorflow/compiler/tf2tensorrt/utils/py_utils.cc:38] TF-TRT Warning: Could not find TensorRT
Misc. initializations
data ready
shape:  (50000, 32, 32, 3)
Validation and test data ready
input shape: (32, 32, 3)
Saving x_test of shape (100, 32, 32, 3) in x_test.h5
Model: "sequential"
_________________________________________________________________
 Layer (type)                Output Shape              Param #   
=================================================================
 conv2d (Conv2D)             (None, 16, 16, 5)         140       
                                                                 
 batch_normalization (Batch  (None, 16, 16, 5)         20        
 Normalization)                                                  
                                                                 
 square_activation (SquareA  (None, 16, 16, 5)         0         
 ctivation)                                                      
                                                                 
 conv2d_1 (Conv2D)           (None, 8, 8, 10)          460       
                                                                 
 batch_normalization_1 (Bat  (None, 8, 8, 10)          40        
 chNormalization)                                                
                                                                 
 square_activation_1 (Squar  (None, 8, 8, 10)          0         
 eActivation)                                                    
                                                                 
 flatten (Flatten)           (None, 640)               0         
                                                                 
 dense (Dense)               (None, 100)               64100     
                                                                 
 square_activation_2 (Squar  (None, 100)               0         
 eActivation)                                                    
                                                                 
 dense_1 (Dense)             (None, 10)                1010      
                                                                 
=================================================================
Total params: 65770 (256.91 KB)
Trainable params: 65740 (256.80 KB)
Non-trainable params: 30 (120.00 Byte)
_________________________________________________________________
0.07999999821186066
