…
2025-03-25 11:37:31.292118: W tensorflow/core/common_runtime/gpu/gpu_device.cc:1960] Cannot dlopen some GPU libraries. Please make sure the missing libraries mentioned above are installed properly if you would like to use GPU. Follow the guide at https://www.tensorflow.org/install/gpu for how to download and setup the required libraries for your platform.
Skipping registering GPU devices...
Misc. initializations
data ready
shape:  (50000, 32, 32, 3)
Validation and test data ready
input shape: (32, 32, 3)
Saving x_test of shape (100, 32, 32, 3) in x_test.h5
Model: "sequential"
_________________________________________________________________
 Layer (type)                Output Shape              Param #   
=================================================================
 conv2d (Conv2D)             (None, 16, 16, 5)         140       
                                                                 
 batch_normalization (Batch  (None, 16, 16, 5)         20        
 Normalization)                                                  
                                                                 
 square_activation (SquareA  (None, 16, 16, 5)         0         
 ctivation)                                                      
                                                                 
 conv2d_1 (Conv2D)           (None, 8, 8, 10)          460       
                                                                 
 batch_normalization_1 (Bat  (None, 8, 8, 10)          40        
 chNormalization)                                                
                                                                 
 square_activation_1 (Squar  (None, 8, 8, 10)          0         
 eActivation)                                                    
                                                                 
 flatten (Flatten)           (None, 640)               0         
                                                                 
 dense (Dense)               (None, 100)               64100     
                                                                 
 square_activation_2 (Squar  (None, 100)               0         
 eActivation)                                                    
                                                                 
 dense_1 (Dense)             (None, 10)                1010      
                                                                 
=================================================================
Total params: 65770 (256.91 KB)
Trainable params: 65740 (256.80 KB)
Non-trainable params: 30 (120.00 Byte)
_________________________________________________________________
Epoch 1/30
100/100 - 7s - loss: 10.0262 - accuracy: 0.1610 - val_loss: 3.2622 - val_accuracy: 0.1210 - 7s/epoch - 72ms/step
…
