…
To enable the following instructions: AVX2 AVX512F AVX512_VNNI AVX512_BF16 FMA, in other operations, rebuild TensorFlow with the appropriate compiler flags.
2025-02-27 09:55:21.883012: W tensorflow/compiler/tf2tensorrt/utils/py_utils.cc:38] TF-TRT Warning: Could not find TensorRT
Misc. initializations
data ready
shape:  (60000, 28, 28, 1)
Validation and test data ready
input shape: (28, 28, 1)
Saving x_test of shape (100, 28, 28, 1) in x_test.h5
Model: "sequential"
_________________________________________________________________
 Layer (type)                Output Shape              Param #   
=================================================================
 conv2d (Conv2D)             (None, 14, 14, 5)         50        
                                                                 
 batch_normalization (Batch  (None, 14, 14, 5)         20        
 Normalization)                                                  
                                                                 
 square_activation (SquareA  (None, 14, 14, 5)         0         
 ctivation)                                                      
                                                                 
 conv2d_1 (Conv2D)           (None, 7, 7, 10)          460       
                                                                 
 batch_normalization_1 (Bat  (None, 7, 7, 10)          40        
 chNormalization)                                                
                                                                 
 square_activation_1 (Squar  (None, 7, 7, 10)          0         
 eActivation)                                                    
                                                                 
 flatten (Flatten)           (None, 490)               0         
                                                                 
 dense (Dense)               (None, 100)               49100     
                                                                 
 square_activation_2 (Squar  (None, 100)               0         
 eActivation)                                                    
                                                                 
 dense_1 (Dense)             (None, 10)                1010      
                                                                 
=================================================================
Total params: 50680 (197.97 KB)
Trainable params: 50650 (197.85 KB)
Non-trainable params: 30 (120.00 Byte)
_________________________________________________________________
Epoch 1/50
120/120 - 2s - loss: 7.0034 - accuracy: 0.6596 - val_loss: 2.2248 - val_accuracy: 0.2474 - 2s/epoch - 19ms/step
…
