…
2025-04-24 10:59:27.144627: I tensorflow/core/common_runtime/gpu/gpu_device.cc:1639] Created device /job:localhost/replica:0/task:0/device:GPU:0 with 9796 MB memory:  -> device: 0, name: NVIDIA GeForce RTX 2080 Ti, pci bus id: 0000:61:00.0, compute capability: 7.5
True
Misc. initializations
data ready
shape:  (50000, 32, 32, 3)
Validation and test data ready
input shape: (32, 32, 3)
Saving x_test of shape (100, 32, 32, 3) in x_test.h5
Model: "sequential"
_________________________________________________________________
 Layer (type)                Output Shape              Param #   
=================================================================
 conv2d (Conv2D)             (None, 32, 32, 64)        1792      
                                                                 
 square_activation (SquareA  (None, 32, 32, 64)        0         
 ctivation)                                                      
                                                                 
 average_pooling2d (Average  (None, 16, 16, 64)        0         
 Pooling2D)                                                      
                                                                 
 conv2d_1 (Conv2D)           (None, 16, 16, 192)       307392    
                                                                 
 square_activation_1 (Squar  (None, 16, 16, 192)       0         
 eActivation)                                                    
                                                                 
 average_pooling2d_1 (Avera  (None, 8, 8, 192)         0         
 gePooling2D)                                                    
                                                                 
 conv2d_2 (Conv2D)           (None, 8, 8, 384)         663936    
                                                                 
 square_activation_2 (Squar  (None, 8, 8, 384)         0         
 eActivation)                                                    
                                                                 
 conv2d_3 (Conv2D)           (None, 8, 8, 256)         884992    
                                                                 
 square_activation_3 (Squar  (None, 8, 8, 256)         0         
 eActivation)                                                    
                                                                 
 conv2d_4 (Conv2D)           (None, 8, 8, 256)         590080    
                                                                 
 square_activation_4 (Squar  (None, 8, 8, 256)         0         
 eActivation)                                                    
                                                                 
 average_pooling2d_2 (Avera  (None, 4, 4, 256)         0         
 gePooling2D)                                                    
                                                                 
 flatten (Flatten)           (None, 4096)              0         
                                                                 
 dense (Dense)               (None, 4096)              16781312  
                                                                 
 square_activation_5 (Squar  (None, 4096)              0         
 eActivation)                                                    
                                                                 
 dense_1 (Dense)             (None, 4096)              16781312  
                                                                 
 square_activation_6 (Squar  (None, 4096)              0         
 eActivation)                                                    
                                                                 
 dense_2 (Dense)             (None, 10)                40970     
                                                                 
=================================================================
Total params: 36051786 (137.53 MB)
Trainable params: 36051786 (137.53 MB)
Non-trainable params: 0 (0.00 Byte)
_________________________________________________________________
Epoch 1/25
2025-04-24 10:59:30.640948: I tensorflow/compiler/xla/stream_executor/cuda/cuda_dnn.cc:432] Loaded cuDNN version 8600
…
